sstmap/app/src/main/ml/VATmodel.tflite (tflite, 22137 bytes, 6 tensors)

sequential_5/dense_17/BiasAdd/ReadVariableOp/resource f4 [64]
000000 a7 f8 f3 3d 2b 26 c5 3d 3d b9 11 3d f1 9a 9b bd
       0.11912661 0.096264206 0.035577048 -0.07597912
000010 07 c0 58 3d 73 3f 29 3d 96 90 63 3d d1 f1 ab 3d
       0.052917507 0.041320276 0.05555781 0.08395732
000020 19 b8 27 3d 12 8c f4 3d 91 9e a4 bd fb 73 35 bd
       0.040947054 0.11940779 -0.08038057 -0.04430006
000030 4f f4 f5 3c b5 ab 98 3d d4 cd 77 bd ec 6e 16 3e
       0.030023722 0.074546255 -0.060499027 0.14690751
000040 bb 6b 0c be d1 9a 2d 3c 36 8c 30 be 4e de b1 bb
       -0.13712971 0.010595993 -0.17240986 -0.005428112
000050 a4 2f c4 3c 4c c2 86 3c b5 3c e1 3c 5f 5a 8d 3d
       0.023948498 0.01645007 0.027494768 0.069020025
000060 7f 0a 9c bb 21 60 ce bd b6 d3 28 3e 2a 7f b0 3d
       -0.0047619934 -0.10076929 0.16487011 0.086180046
000070 c4 1e 8e bc 82 fe 7d bd e9 1a 89 3d e4 7e a2 bc
       -0.017348655 -0.062010296 0.06694586 -0.019835897
000080 5b 3c b4 3c 66 a7 48 bd 61 5c ac 3d a0 b5 9e 3d
       0.022001436 -0.04898777 0.084160574 0.07749486
000090 63 c0 81 3d 71 87 ac bd 59 ba 01 3e e1 db 51 3c
       0.06335523 -0.08424271 0.12668742 0.012808771
0000a0 c1 ea 58 bb 60 ae 24 be 30 17 81 bc 2a b5 e9 bd
       -0.0033098909 -0.16082144 -0.015758127 -0.114115074
0000b0 b9 97 3d 3d 3f 76 73 3d 33 2b f4 3d c7 4f 02 3e
       0.046287272 0.05943894 0.11922302 0.12725745
0000c0 96 13 cb 3c fc 9b 60 3c 28 c7 49 3d 86 63 b9 3d
       0.024789613 0.013709065 0.049262196 0.09052186
0000d0 c3 f4 c4 3d 97 17 00 3e d4 0a c0 bd 8a d4 29 bb
       0.09616997 0.12508999 -0.09377065 -0.0025914037
0000e0 44 76 8a 3c 4e e0 c7 bb 1f 46 73 3d a6 71 bb bc
       0.016902097 -0.0060997372 0.059393045 -0.02288134
0000f0 11 19 c0 3d 8a 27 7d 3d b0 c0 fd 3d 2b 58 23 3e
       0.09379781 0.061805286 0.12390268 0.15951602

sequential_5/dense_18/BiasAdd/ReadVariableOp/resource f4 [64]
000000 3f 71 c0 3d 20 79 be bd 4c 18 66 3d 63 3a 0a bc
       0.093966 -0.093004465 0.056175515 -0.008436772
000010 11 23 43 bc 20 33 3a 3d 7c e4 8a bd 28 04 3a bd
       -0.011910216 0.045458913 -0.06781861 -0.04541412
000020 ac db ad bd eb 64 9f 3a b0 3b a7 3c f4 d0 67 bd
       -0.08489165 0.0012160813 0.020414203 -0.056595758
000030 c5 bc a9 3c 3d 46 29 bd 5c 37 a5 bd 24 db 17 bc
       0.020719895 -0.04132675 -0.080671996 -0.009268556
000040 cf 8a 95 bd c3 01 ef 3b e2 29 ad bd 48 78 8f bd
       -0.07301866 0.007293911 -0.08455254 -0.07005364
000050 04 ae 42 3d 3a 69 54 3d 73 25 4f bd 58 ce fb bc
       0.047529235 0.051858164 -0.050572824 -0.03073804
000060 9d 64 72 bd 1e 77 ad bc 16 7e c3 bd 74 e0 13 3d
       -0.059177984 -0.021174964 -0.09545533 0.036102727
000070 a3 5d bd bd 33 9d b9 bd bf bd 47 3d 3c 6c b5 3c
       -0.092463754 -0.090631865 0.04876494 0.022146337
000080 99 a5 1b bd 30 a9 02 bd db 45 da bb 80 53 16 bc
       -0.037999723 -0.03189963 -0.0066611595 -0.009175181
000090 91 00 49 bc 62 4a 8c bc 6b f0 d7 3c 06 63 7a 3d
       -0.012268201 -0.017125312 0.026359757 0.061129592
0000a0 5c b4 76 bc ad db 96 3d 32 86 fa 3c 03 67 86 bd
       -0.015057649 0.073661186 0.030581567 -0.06562617
0000b0 cd 2c 8a bd 2b ed d3 3d 85 8f 95 bd ce 9f 85 bd
       -0.06746826 0.103479706 -0.07302765 -0.06524621
0000c0 46 6e 88 bd 18 78 cc 3b db e3 82 3e 21 6a 48 bd
       -0.06661658 0.006239902 0.25564465 -0.048929337
0000d0 63 fe a1 bd 3c c5 a5 bd db bf 30 3d b5 00 5d 3d
       -0.079098485 -0.0809426 0.043151718 0.053955752
0000e0 d2 90 f9 3c c5 03 34 bd e2 e3 b1 bd 68 62 29 bc
       0.030464564 -0.043948907 -0.08686043 -0.010338403
0000f0 e5 eb c1 bc c1 52 28 3c bd ba e4 bb 38 e4 a4 bd
       -0.023672054 0.010273636 -0.0069802688 -0.08051342

sequential_5/dense_19/BiasAdd/ReadVariableOp/resource f4 [2]
000000 d7 3c 8d 3d 46 3e 8d bd
       0.0689637 -0.06896643

sequential_5/dense_17/MatMul f4 [64, 9]
000000 b6 39 d0 3e 1f 09 31 3e 8d 89 b7 3e 27 33 1d be
       0.4066903 0.17288636 0.3584713 -0.15351544
000010 a4 b0 30 be 1e f6 f0 3d 5e b3 a9 3d 1f e6 fa 3c
       -0.17254883 0.11765693 0.08286165 0.030627308
000020 b7 24 67 3e ee b6 2a 3e a2 5e ba 3e 15 04 85 bd
       0.225726 0.16671345 0.36400324 -0.06494919
000030 7b db a2 3c 24 b4 34 3d 38 f1 2a bd c6 e3 08 3e
       0.019880047 0.044117108 -0.04173395 0.13368139
000040 28 e5 8d 3e af 76 42 be a2 20 1f bf 0c 9f 66 3e
       0.27713895 -0.18990587 -0.6215917 0.22521609
000050 ed c4 97 bd 49 f2 57 bf 65 b0 e7 b9 d5 8b e6 bc
       -0.074106075 -0.8435407 -0.00044191178 -0.028142849
000060 90 97 5a 3e 64 79 a5 be a9 51 91 be 9f e6 1a bd
       0.21346879 -0.32319176 -0.28382614 -0.037817594
000070 1e fe b7 3d b8 3d 0a be d4 26 d2 3e 04 57 9b be
       0.08984016 -0.13500106 0.41045249 -0.30339825
000080 15 d6 b3 3e f6 a0 ee bd 5f 57 6d 3e 8f 4d b0 be
       0.3512427 -0.116517946 0.2317786 -0.34434173
000090 2d e5 b3 bd 7b 15 a7 be f9 2f 8c 3b 8e e3 0e be
       -0.08783946 -0.32633576 0.0042781797 -0.13953993
0000a0 51 a8 83 be 09 f0 7f 3c af 51 49 3e 8e 2d ce 3e
       -0.25714353 0.015621194 0.19660066 0.4026913
0000b0 03 3a 2e 3e 89 a6 5e 3e 02 38 d8 be 3a 4f 31 3e
       0.17014317 0.21743216 -0.4223023 0.17315379
0000c0 a9 d2 41 be fa 38 03 3e f0 eb 15 be e8 a9 97 be
       -0.18928017 0.12814704 -0.14640784 -0.29621816
0000d0 f7 ec 60 be 88 67 61 be d2 07 95 bf 70 f7 16 3f
       -0.21965395 -0.2201215 -1.1643012 0.5897131
0000e0 25 a3 46 be 5b 28 ee 3c b4 11 1d be 83 a3 bb 3c
       -0.19398172 0.029071977 -0.15338784 0.022905117
0000f0 68 6b 3d be 0f 8a 32 be a9 3a f0 3c 8c bc 81 3e
       -0.18498003 -0.17435478 0.029324846 0.25339162
000100 04 c3 1c be c3 40 52 be bd ef 5f 3e 68 77 55 3e
       -0.15308768 -0.20532517 0.21868797 0.20846331
000110 9d 7b 6f 3e 53 f4 92 bd 08 1a f5 be 9c 37 77 be
       0.23386998 -0.071755074 -0.47871423 -0.24142307
000120 66 aa 0e be b8 64 d6 3c 2c 6b 8e 3e a7 43 a3 3e
       -0.1393219 0.026171073 0.2781614 0.31887552
000130 31 bb 9c bd 6f 8f 11 be ba 33 f9 bd a8 9d 00 3e
       -0.076528914 -0.14214872 -0.12168069 0.12560141
000140 86 55 bd bc 23 04 a4 3e 0e 5b d8 3e 4b a7 9a 3e
       -0.02311207 0.32034406 0.4225697 0.3020576
000150 e6 12 c6 bc f1 97 18 3b 44 e1 11 3c 09 c0 44 bd
       -0.024178933 0.0023283924 0.008903805 -0.0480347
000160 b2 fd 3d be f4 87 ea 3d e0 ca 7c bd 4a df 6f be
       -0.18553808 0.11451712 -0.061716914 -0.23425022
000170 b6 bf ef 3d 45 e7 a6 bd 42 ef 8b 3e 83 70 cb 3d
       0.11706488 -0.0814958 0.27330977 0.09933569
000180 49 1f 7f be c8 14 dd be d7 7f 94 be d9 e8 89 3e
       -0.24914278 -0.43179917 -0.29003784 0.2693546
000190 ea 65 c1 bc d0 5a 2e be e4 76 8d 3e 53 7d b9 bd
       -0.023608167 -0.1702683 0.2762977 -0.09057107
0001a0 53 89 89 3e 56 2b 11 bf 72 77 fc 3d e8 5e 8f 3d
       0.26862583 -0.5670675 0.1232747 0.07000524
0001b0 a4 6e 08 3e d1 83 4a 3e 3d e6 3c 3e ae 07 17 be
       0.13323456 0.19776846 0.18447204 -0.14749023
0001c0 83 a7 13 3d 90 67 b1 be 18 df 73 3e 57 94 d1 3d
       0.036048423 -0.34649324 0.23815572 0.10233372
0001d0 3f a3 4b 3e 88 50 88 3e 19 62 af be 15 b1 4b be
       0.19886492 0.2662394 -0.3425453 -0.1989177
0001e0 60 cf b7 be 63 e5 88 3e 7c fc 66 3e c6 63 2d 3e
       -0.35900402 0.26737508 0.22557253 0.16932592
0001f0 af 5e a4 bd ff 68 b0 3d 19 7c f1 3c 27 9f c3 be
       -0.08025872 0.086137764 0.02947812 -0.3820736
000200 91 74 f2 3d 32 56 1d 3e 45 40 59 3e 74 24 92 be
       0.118386395 0.15364912 0.21215923 -0.28543437
000210 8f 77 0c be 3e a8 4d 3e 15 bb 0f 3d ba 8a bd 3e
       -0.13717483 0.2008371 0.035090525 0.37019902
000220 52 98 95 3e 51 7e 13 3d d7 f5 10 3e 4b 81 28 bc
       0.29217774 0.036009137 0.1415628 -0.010284732
000230 b4 46 7f be 22 da 8f be 5c 01 c1 be 17 5b 0c be
       -0.24929315 -0.2809611 -0.3769635 -0.13706623
000240 cd 3f fe bd f4 62 55 be 49 dc 88 be e9 72 4e be
       -0.12414513 -0.20838529 -0.26730564 -0.20161022
000250 ab 4e 4a bd 09 44 68 be 54 d0 99 be a0 08 7c bd
       -0.04939143 -0.22682203 -0.30041754 -0.061531663
000260 58 77 95 3e fa 59 1c be 86 b3 06 be b0 d9 a6 be
       0.29192615 -0.15268698 -0.1315442 -0.32587957
000270 85 30 1b 3d 89 9d b7 3d fa 1b 1f be 6d b2 9b 3d
       0.03788807 0.08965594 -0.15538016 0.076023914
000280 f6 f4 7b bd f6 d9 9e 3e 25 11 20 be 6d 11 0c be
       -0.06151291 0.31025666 -0.1563154 -0.13678522
000290 ae e2 91 be 9c 74 b7 be d6 34 42 be 9a e3 4f be
       -0.28493255 -0.35831153 -0.18965468 -0.20301667
0002a0 f4 9b 9a 3d 46 4c cc 3d 58 cd 91 be 38 ca e6 bd
       0.07549277 0.099754855 -0.28476977 -0.11269039
0002b0 4c 44 11 be 94 85 58 bd d8 d5 9c 3e 22 fe 2b 3d
       -0.1418621 -0.052861765 0.306319 0.041990407
0002c0 a8 3b 4d 3e a9 ab f1 bd 0d c0 88 bd 19 1a 8f 3d
       0.20042288 -0.1180032 -0.06677256 0.069873996
0002d0 12 ac 25 3e b9 a5 a4 be 59 15 cc be 9e 79 cf 3d
       0.16178921 -0.32157686 -0.39860037 0.101306185
0002e0 dd 9a bc bd bb 48 57 3c a9 d9 69 be 6c f3 b6 3e
       -0.09209225 0.013139899 -0.22836937 0.3573259
0002f0 4d 21 83 bb 60 90 25 3d a4 c1 ec be f6 30 88 be
       -0.0040017725 0.04042089 -0.46241486 -0.26599854
000300 0c 63 5f 3e 8f f0 6c bb ac 53 c6 3d 77 dc 21 be
       0.21815127 -0.0036154126 0.09683928 -0.15806757
000310 8e b9 53 3e be 8f a9 3d ff d0 1a 3e 50 04 de be
       0.20676252 0.0827937 0.15118788 -0.43362665
000320 71 41 2e be ef 3c 16 3e 02 49 3b bd ba f8 7f 3e
       -0.17017151 0.14671682 -0.045723923 0.24997225
000330 70 65 b3 3e ed 67 1b 3f 5f 8e 56 be 76 a3 99 3e
       0.35038328 0.60705453 -0.20952748 0.30007523
000340 05 e6 00 bf 18 c8 23 bf bd d6 aa bc 36 f3 f2 bd
       -0.5035098 -0.63977194 -0.020854348 -0.11862795
000350 c2 8f 3e 3e 0c 8c e2 3e 8e 5e 8c bd 51 7f 9f be
       0.18609527 0.44247472 -0.068539724 -0.31151822
000360 b6 36 f0 be fc a8 71 3e 56 92 3f 3e 01 e8 c9 3e
       -0.4691674 0.23599619 0.18708166 0.39434817
000370 e4 8d f1 3d 1c 5d 03 be ef ef b6 be 46 95 21 bc
       0.117946416 -0.12828487 -0.3572993 -0.00986225
000380 1d 44 e6 3d da a0 4b bd 0e 6f a9 3e c8 f6 87 3c
       0.1124346 -0.049713947 0.3309254 0.016597167
000390 fd f9 a0 3d e5 72 7d 3d 86 5f 05 3d 8d d1 9f bd
       0.078601815 0.06187715 0.0325618 -0.078036405
0003a0 50 11 b6 bd 00 36 3e be 9e ca a0 3e 1f 02 77 3d
       -0.08890021 -0.18575287 0.31404585 0.060304757
0003b0 e3 ed b6 3e 1f d7 b0 be 60 d6 28 3d e4 ae ab 3e
       0.35728368 -0.34539124 0.04122007 0.33531868
0003c0 70 26 ae 3c 45 6a e3 3d 71 55 b7 3e 22 51 86 3c
       0.021258563 0.11104254 0.35807374 0.016396109
0003d0 79 f2 15 3e 2a df 79 3e e8 95 65 3e 85 06 3e 3e
       0.14643277 0.24401537 0.22420466 0.18557175
0003e0 0b d4 8e be c0 f5 2f bd 53 82 64 be b8 8c e3 bd
       -0.2789615 -0.042958975 -0.2231534 -0.11110824
0003f0 23 3d 8d 3e 2f d9 1b bf 12 41 e8 be e7 01 82 be
       0.27585706 -0.6087827 -0.45362145 -0.25392076

sequential_5/dense_18/MatMul f4 [64, 64]
000000 2c 1d e8 3c 93 88 08 be 0c 5c 10 3e bd 11 eb 3e
       0.028334223 -0.13333349 0.14097613 0.4591197
000010 be 58 88 be 06 c9 e6 3d 09 83 61 3f cb 94 6d be
       -0.26630205 0.11268811 0.8809057 -0.23201291
000020 c0 8f b8 bd ab b3 ea 3d 90 30 2c be 2b b3 28 3e
       -0.09011793 0.1146005 -0.168154 0.16474597
000030 da 69 51 3e a6 1b 39 be a1 a1 1a 3d e1 c8 bf bb
       0.20450535 -0.18076953 0.037751798 -0.005852804
000040 0c 44 13 bd 55 5a 39 be 9f ed a1 bd 3e 99 36 be
       -0.035953566 -0.18100865 -0.07906651 -0.17831895
000050 4d 9f da be a5 5c ec bd 54 80 a0 3e 3f 41 c4 be
       -0.42699662 -0.11541108 0.31347907 -0.3833103
000060 9a c1 b0 3e d2 d0 5e bc 9b 04 04 be 33 2d bf 3c
       0.34522706 -0.013599591 -0.12892382 0.023336982
000070 b5 95 3b 3d 30 6b 59 be 63 92 4b 3e 0e 1d de bd
       0.04579707 -0.21232295 0.19880061 -0.108453855
000080 0b 4c 71 3e b6 28 0f 3f 8f 63 6a 3e c3 6a 9b 3e
       0.23564164 0.55921495 0.22889541 0.3035489
000090 ed 42 e1 bc 6e 8f 0b bd 9c a0 9b be b8 69 9a bd
       -0.027497733 -0.034072332 -0.30395973 -0.075396955
0000a0 8a ed 81 3e 98 60 29 3e c1 0e b5 bd b8 9b 4a be
       0.2537654 0.16540754 -0.08840705 -0.19785964
0000b0 f8 3c 98 3d f8 37 91 bd 1f fd b6 3e 4f dc bc 3e
       0.07433504 -0.07090753 0.3573999 0.36886832
0000c0 e3 d2 b9 3c 97 b2 25 ba 06 2a 11 be 8b 3f f9 3d
       0.022683566 -0.00063208624 -0.14176187 0.12170323
0000d0 6d 43 26 bd 73 84 ca be ac 62 95 3d dd db e8 3d
       -0.040591646 -0.39554176 0.07294211 0.113700606
0000e0 79 0e eb 3d b6 05 48 3e dd 19 7a bc c2 a3 67 be
       0.1147737 0.19533429 -0.015264955 -0.22621062
0000f0 1f d4 15 3d 5d ee 21 be c5 74 74 3e 27 bb ca 3d
       0.036579248 -0.15813585 0.23872669 0.09898978
000100 c0 57 fa bc b4 e7 0b bd 08 18 3f 3e 1f 18 f4 3d
       -0.03055942 -0.034156516 0.18661511 0.11918663
000110 04 de 67 3e 37 59 65 3e 7e ff d3 3d 28 45 bf 3d
       0.22643286 0.22397314 0.10351466 0.093393624
000120 e8 c0 47 3e 51 0d 82 be 73 d7 c0 3d 28 89 38 3e
       0.19507182 -0.25400785 0.09416094 0.18021071
000130 cf 33 a3 bd aa f1 60 3e 21 39 56 3d ad 45 1f 3e
       -0.07968866 0.21967188 0.052300576 0.15553923
000140 81 b8 6c 3c a2 a2 bd 3b a9 22 0c bd 8a a4 d3 bd
       0.014448286 0.0057872096 -0.034212742 -0.10334118
000150 fb 46 9e 3e 28 03 69 3c ac a3 5c 3e d6 69 40 3e
       0.3091353 0.014221944 0.21546811 0.18790373
000160 40 00 1d 3d 5a 16 d0 bb 6d 9b 64 3c 8d ee 1a be
       0.038330317 -0.0063503208 0.013953072 -0.15130062
000170 9c 8d 4c 3e 50 a4 d2 bd 24 5d dc 3c 25 ff f8 3d
       0.19975895 -0.10285246 0.026899882 0.1215804
000180 34 d9 82 3c 64 84 b1 3c a4 18 0b 3e 93 e7 85 3e
       0.015972711 0.021669574 0.13583618 0.2615324
000190 ab b6 85 3d 83 6f 20 3e 74 02 67 3e ee 54 60 3d
       0.06528982 0.15667538 0.2255953 0.054768495
0001a0 24 d4 8a be da 69 42 be 88 54 0e be d6 d9 4b 3e
       -0.27114975 -0.18985692 -0.13899434 0.19907317
0001b0 68 02 8d 3d e3 25 77 be c1 07 45 3e 1c 59 27 3e
       0.068852246 -0.24135546 0.19241239 0.16342586
0001c0 d1 19 2a 3e 7a 55 a4 3e dc ad fe bd 81 02 06 3d
       0.1661141 0.32096463 -0.12435505 0.03271723
0001d0 8f 81 1d be f1 3c 00 3e 1e 8f 48 3d fe 93 b5 3d
       -0.15381454 0.12523247 0.048964612 0.08866118
0001e0 3d b5 54 bd b5 06 97 bd c3 c5 18 be 1f 79 52 3d
       -0.051930655 -0.07374326 -0.1491919 0.05138504
0001f0 6f 8a 86 bc 5c dd 84 3e c0 cf ad bd ff 67 d8 3d
       -0.016423432 0.25950134 -0.08486891 0.10566711
000200 55 9d 92 be 33 dd a6 be 56 37 a8 3e 64 b8 a2 be
       -0.2863566 -0.32590637 0.32854718 -0.31781304
000210 ef 40 2e 3e 28 c4 7c 3e 95 04 f2 bd 4a 78 ce 3e
       0.17016958 0.24684203 -0.1181728 0.40326148
000220 50 89 ef 3d 70 43 8c be fd a2 9a 3e ca 42 6d 3e
       0.11696112 -0.273952 0.30202475 0.2317001
000230 be 5a 59 be d0 b9 d8 3e 15 6a f7 bc 8d e7 7a 3e
       -0.21226022 0.42329264 -0.030201951 0.24502392
000240 5f 61 a0 3e 89 40 35 3e 96 0e cc 3e bc 8c 34 3c
       0.31324288 0.177004 0.39854878 0.011019882
000250 69 5c 2e 3f f5 8b 39 3e 77 7d 51 3f 0f ec 90 3f
       0.68109757 0.18119796 0.8183207 1.1322039
000260 7b 73 41 bd 23 17 0a 3e 83 32 87 be ec 0f 84 3e
       -0.04722927 0.13485388 -0.26405725 0.25793397
000270 60 c4 19 3f 22 e0 8a 3e e9 d2 c0 3d 5f 88 9e 3e
       0.6006527 0.27124125 0.09415228 0.30963418
000280 f2 d5 44 be 08 6a d2 3e 27 26 08 3e 3a 3d 8a 3e
       -0.19222239 0.4109652 0.13295804 0.26999837
000290 92 14 25 3e 1f 90 12 3e 7d b3 3c 3e 7d f3 8a 3e
       0.16121128 0.1431279 0.18427844 0.27138892
0002a0 df d0 9c be 61 40 1b 3c b8 42 85 be 1e ba ca 3d
       -0.30628106 0.009475798 -0.26027465 0.0989878
0002b0 8e 37 c1 3e 78 43 2b bf 42 6c 1f 3f b5 6b b6 3d
       0.37737697 -0.66899824 0.62274563 0.08907262
0002c0 38 cc 47 3e 78 b2 f5 3d 8d dc d2 bd d3 06 27 bd
       0.19511497 0.11996931 -0.10295973 -0.040777992
0002d0 f4 d8 9a be cf 83 26 3f 5d 52 d2 3e f5 dd a7 3d
       -0.30243647 0.65044874 0.41078463 0.08196632
0002e0 b9 40 b7 bd c1 ff f3 bd 80 fb a9 be 7f 2c 55 3e
       -0.08947892 -0.119140156 -0.33199692 0.20817755
0002f0 af d8 50 bf 7f 41 50 3e f8 3c 5c be 64 f9 db bd
       -0.8158063 0.20337485 -0.21507633 -0.10740927
000300 bf b8 63 3d 42 7c 03 be ee 3e 6c 3e fb 27 64 3e
       0.05559611 -0.1284037 0.23070881 0.22280876
000310 67 47 a4 bd e9 db 1c 3e 5c aa 02 3f 6e 6a d9 3d
       -0.080214314 0.15318264 0.510412 0.10616003
000320 30 3b 0c 3e d0 33 00 bc 03 3f d1 3c b8 7c af bd
       0.13694453 -0.007824853 0.025542742 -0.0856871
000330 4b 46 ec bb 04 95 c8 bd 1d c2 4d 3c 4a d2 2d 3e
       -0.007210528 -0.097940475 0.012558487 0.1697475
000340 87 26 8a bc c3 e2 6a bc 4c cb 14 be 05 8d 0f 3e
       -0.016864074 -0.014336291 -0.14530677 0.14018638
000350 4c 1e 0a 3d f5 b8 00 be 20 2b 8a bc ec 4e f9 be
       0.0337203 -0.12570556 -0.016866267 -0.48693025
000360 36 47 2a 3d 23 87 40 be a6 63 1a be 16 a2 85 bd
       0.04157182 -0.1880155 -0.15077075 -0.06525056
000370 15 6c 0d bd 65 82 c4 bd d8 be 40 3e 27 a0 09 3d
       -0.034526903 -0.09595183 0.18822801 0.0336
000380 92 eb ff bc 8e ec b7 3e b5 8b 18 3e 5a 23 6c bd
       -0.031240258 0.35922664 0.14897044 -0.0576509
000390 f8 ab ba 3d b6 d4 43 be b5 3e cb bd 62 fb 19 be
       0.09114832 -0.19124112 -0.0992407 -0.15037301
0003a0 4b d7 de b9 63 ee 24 3e cc 80 84 bc 94 5e 38 3d
       -0.00042503545 0.16106562 -0.016174696 0.04501207
0003b0 5f 8a 50 3b b2 b0 1d 3e c6 ae b7 bd 6a 48 a7 3d
       0.0031820757 0.15399435 -0.08968882 0.08168109
0003c0 02 ce a2 3d fb 98 6f be 41 98 84 3e 01 85 7a 3b
       0.07949449 -0.23398201 0.2589741 0.003822625
0003d0 f8 59 cf bd 11 c5 81 3d 54 eb 53 bd f0 0c a1 3d
       -0.10124582 0.063364156 -0.0517381 0.07863796
0003e0 db 9f 08 3d aa ac 46 3e 0e f8 07 3e 21 ab 20 be
       0.033355575 0.19401804 0.13278219 -0.1569028
0003f0 dd b6 22 3e a1 c6 98 bd 09 b6 83 bc 8e 47 3e 3e
       0.1589007 -0.074597605 -0.016078012 0.18581983

sequential_5/dense_19/MatMul f4 [2, 64]
000000 be 58 93 be 19 0c 98 3e e4 47 db 3e 7f 23 72 be
       -0.28778642 0.2969673 0.42828286 -0.23646353
000010 e5 67 a5 be 7c 83 83 be 9a dc 00 3d d1 50 50 3e
       -0.32305828 -0.25686252 0.031460382 0.20343329
000020 c9 c8 08 3e f7 b9 5f be 97 78 03 bf ac 43 f6 3e
       0.13357843 -0.21848284 -0.5135588 0.48098505
000030 11 c7 a4 bd 9b 5e 9b be 6d 90 ad 3e 3b cb 58 be
       -0.080457814 -0.30345616 0.3389925 -0.21171276
000040 9e 20 87 3d 7a ef fc be c4 20 8c 3e 3a aa ea 3e
       0.06598018 -0.49401456 0.27368748 0.45832998
000050 74 25 64 bd 35 ba 03 bf db d7 2d be 20 5c 8a 3e
       -0.05569978 -0.51456004 -0.16976874 0.2702341
000060 09 4c d5 3e 1c 21 22 3f 3e 97 f7 3e f5 59 58 be
       0.41659573 0.6333177 0.48357576 -0.21128066
000070 43 31 70 3e d9 bc b2 be 70 72 90 be 45 4e 72 be
       0.23456292 -0.34909704 -0.2821231 -0.2366267
000080 0b 27 95 3e 6f 93 f4 3e bc f6 4f bd 0a 31 c4 be
       0.2913135 0.47768733 -0.050772414 -0.38318664
000090 58 66 0f 3f 41 20 28 bf d8 0b c0 bd 67 01 a0 be
       0.5601554 -0.65674216 -0.09377259 -0.3125107
0000a0 63 19 ad 3d f0 53 48 3e bc 8e 01 bf 32 12 90 3e
       0.08452108 0.1956327 -0.5060842 0.28138882
0000b0 99 cc 58 3e 50 c0 a9 be d6 e4 fc 3e 9b 8c 04 3d
       0.21171798 -0.33154535 0.49393338 0.032360654
0000c0 b3 d2 b2 3e 2e 50 be be 94 2c 1f 3f 04 c5 66 3e
       0.34926376 -0.37170547 0.62177396 0.22536093
0000d0 d9 5d dd 3e 9e 19 c1 3e 20 90 d7 3d 59 12 ac be
       0.43235663 0.37714857 0.105255365 -0.33607748
0000e0 2c 87 49 3f 7a 2e 6d 3e f8 55 a6 3e c8 95 70 be
       0.7872188 0.2316226 0.32487464 -0.23494637
0000f0 e8 42 40 be 1e 40 3e be d4 40 07 3f 87 68 b8 3e
       -0.18775523 -0.18579146 0.52833295 0.36017248
000100 bb c2 f1 3e f2 3d cd be c8 23 e2 be 6b 9b 45 3e
       0.4721888 -0.40086323 -0.44167924 0.19297569
000110 84 5d d6 3e c2 fd 1d 3e 91 88 bc be 51 b5 e2 be
       0.41868222 0.15428832 -0.36822942 -0.44278958
000120 b8 ac c4 be fe 0a df 3e 88 28 92 3e 54 e2 58 bd
       -0.38413024 0.43563074 0.28546548 -0.05295022
000130 47 a1 84 3e 92 a8 1f 3d d1 5b e5 be 57 a0 87 3e
       0.25904295 0.03897912 -0.44796613 0.26489517
000140 35 be 11 bf bf bf b2 3d 24 ff 97 be 26 e9 41 be
       -0.5693086 0.08727979 -0.29686844 -0.18936595
000150 07 8d 0c 3f 77 7b cb bb 53 65 0b 3e 86 ad a0 be
       0.5490269 -0.0062097865 0.13612871 -0.31382388
000160 92 18 6a bc b4 7b f0 be bf 03 80 be a7 f3 97 3e
       -0.014288085 -0.46969378 -0.25002858 0.2967808
000170 88 0b 96 be ba 63 02 3f 51 a5 eb 3e 2f c2 97 3e
       -0.29305673 0.5093342 0.46024564 0.29640338
000180 b1 80 9d be 62 b4 a8 be e1 18 64 3e 72 7f ce 3e
       -0.30762246 -0.3295012 0.22275116 0.40331608
000190 f2 a3 1c bf da a4 f2 3e 3c 2d 89 3e f4 ca 00 3f
       -0.6118766 0.47391397 0.26792324 0.5030968
0001a0 a1 e8 e6 bd 98 3a b6 be a3 ea 90 3e 1b 8c 3b be
       -0.11274839 -0.35591578 0.28304014 -0.18315165
0001b0 6f 10 eb be bc c8 bc 3e 94 98 80 be 29 3f 9e 3e
       -0.45910975 0.36871898 -0.25116408 0.30907562
0001c0 6f f6 8e be 45 92 be 3e 9c 81 30 bf cb 63 aa be
       -0.2792239 0.3722097 -0.6894777 -0.3327926
0001d0 db cd dc be ca b4 83 be ba 44 c2 be c4 e0 9e 3e
       -0.43125805 -0.2572387 -0.3794306 0.31030858
0001e0 d9 cb 49 bf b3 8e d9 be 7b f0 0a bd 32 cd 2e bd
       -0.7882667 -0.42491683 -0.033920746 -0.04267616
0001f0 82 4b 14 3e 51 4d 93 3e b4 4b 2f be 4b f0 96 be
       0.14481929 0.28769925 -0.17118722 -0.29480204
